…
Layer (type)                    Output Shape         Param #     Connected to                     
==================================================================================================
input_1 (InputLayer)            (None, 256, 256, 50, 0                                            
__________________________________________________________________________________________________
conv3d_1 (Conv3D)               (None, 256, 256, 50, 512         input_1[0][0]                    
__________________________________________________________________________________________________
lambda_1 (Lambda)               (None, 256, 256, 50) 0           conv3d_1[0][0]                   
__________________________________________________________________________________________________
lambda_2 (Lambda)               (None, 256, 256, 50) 0           conv3d_1[0][0]                   
__________________________________________________________________________________________________
lambda_3 (Lambda)               (None, 256, 256, 50) 0           conv3d_1[0][0]                   
__________________________________________________________________________________________________
lambda_4 (Lambda)               (None, 256, 256, 50) 0           conv3d_1[0][0]                   
__________________________________________________________________________________________________
lambda_5 (Lambda)               (None, 256, 256, 50) 0           conv3d_1[0][0]                   
__________________________________________________________________________________________________
lambda_6 (Lambda)               (None, 256, 256, 50) 0           conv3d_1[0][0]                   
__________________________________________________________________________________________________
lambda_7 (Lambda)               (None, 256, 256, 50) 0           conv3d_1[0][0]                   
__________________________________________________________________________________________________
lambda_8 (Lambda)               (None, 256, 256, 50) 0           conv3d_1[0][0]                   
__________________________________________________________________________________________________
global_average_pooling2d_1 (Glo (None, 50)           0           lambda_1[0][0]                   
__________________________________________________________________________________________________
global_average_pooling2d_2 (Glo (None, 50)           0           lambda_2[0][0]                   
__________________________________________________________________________________________________
global_average_pooling2d_3 (Glo (None, 50)           0           lambda_3[0][0]                   
__________________________________________________________________________________________________
global_average_pooling2d_4 (Glo (None, 50)           0           lambda_4[0][0]                   
__________________________________________________________________________________________________
global_average_pooling2d_5 (Glo (None, 50)           0           lambda_5[0][0]                   
__________________________________________________________________________________________________
global_average_pooling2d_6 (Glo (None, 50)           0           lambda_6[0][0]                   
__________________________________________________________________________________________________
global_average_pooling2d_7 (Glo (None, 50)           0           lambda_7[0][0]                   
__________________________________________________________________________________________________
global_average_pooling2d_8 (Glo (None, 50)           0           lambda_8[0][0]                   
__________________________________________________________________________________________________
dense_1 (Dense)                 (None, 12)           612         global_average_pooling2d_1[0][0] 
__________________________________________________________________________________________________
dense_3 (Dense)                 (None, 12)           612         global_average_pooling2d_2[0][0] 
__________________________________________________________________________________________________
dense_5 (Dense)                 (None, 12)           612         global_average_pooling2d_3[0][0] 
__________________________________________________________________________________________________
dense_7 (Dense)                 (None, 12)           612         global_average_pooling2d_4[0][0] 
__________________________________________________________________________________________________
dense_9 (Dense)                 (None, 12)           612         global_average_pooling2d_5[0][0] 
__________________________________________________________________________________________________
dense_11 (Dense)                (None, 12)           612         global_average_pooling2d_6[0][0] 
__________________________________________________________________________________________________
dense_13 (Dense)                (None, 12)           612         global_average_pooling2d_7[0][0] 
__________________________________________________________________________________________________
dense_15 (Dense)                (None, 12)           612         global_average_pooling2d_8[0][0] 
__________________________________________________________________________________________________
dense_2 (Dense)                 (None, 50)           650         dense_1[0][0]                    
__________________________________________________________________________________________________
dense_4 (Dense)                 (None, 50)           650         dense_3[0][0]                    
__________________________________________________________________________________________________
dense_6 (Dense)                 (None, 50)           650         dense_5[0][0]                    
__________________________________________________________________________________________________
dense_8 (Dense)                 (None, 50)           650         dense_7[0][0]                    
__________________________________________________________________________________________________
dense_10 (Dense)                (None, 50)           650         dense_9[0][0]                    
__________________________________________________________________________________________________
dense_12 (Dense)                (None, 50)           650         dense_11[0][0]                   
__________________________________________________________________________________________________
dense_14 (Dense)                (None, 50)           650         dense_13[0][0]                   
__________________________________________________________________________________________________
dense_16 (Dense)                (None, 50)           650         dense_15[0][0]                   
__________________________________________________________________________________________________
multiply_1 (Multiply)           (None, 256, 256, 50) 0           lambda_1[0][0]                   
                                                                 dense_2[0][0]                    
__________________________________________________________________________________________________
multiply_2 (Multiply)           (None, 256, 256, 50) 0           lambda_2[0][0]                   
                                                                 dense_4[0][0]                    
__________________________________________________________________________________________________
multiply_3 (Multiply)           (None, 256, 256, 50) 0           lambda_3[0][0]                   
                                                                 dense_6[0][0]                    
__________________________________________________________________________________________________
multiply_4 (Multiply)           (None, 256, 256, 50) 0           lambda_4[0][0]                   
                                                                 dense_8[0][0]                    
__________________________________________________________________________________________________
multiply_5 (Multiply)           (None, 256, 256, 50) 0           lambda_5[0][0]                   
                                                                 dense_10[0][0]                   
__________________________________________________________________________________________________
multiply_6 (Multiply)           (None, 256, 256, 50) 0           lambda_6[0][0]                   
                                                                 dense_12[0][0]                   
__________________________________________________________________________________________________
multiply_7 (Multiply)           (None, 256, 256, 50) 0           lambda_7[0][0]                   
                                                                 dense_14[0][0]                   
__________________________________________________________________________________________________
multiply_8 (Multiply)           (None, 256, 256, 50) 0           lambda_8[0][0]                   
                                                                 dense_16[0][0]                   
__________________________________________________________________________________________________
reshape_1 (Reshape)             (None, 256, 256, 50, 0           multiply_1[0][0]                 
__________________________________________________________________________________________________
…
                                                                 concatenate_6[0][0]              
__________________________________________________________________________________________________
average_pooling3d_1 (AveragePoo (None, 127, 127, 22, 0           concatenate_7[0][0]              
__________________________________________________________________________________________________
reshape_33 (Reshape)            (None, 127, 127, 704 0           average_pooling3d_1[0][0]        
__________________________________________________________________________________________________
separable_conv2d_1 (SeparableCo (None, 64, 64, 128)  96576       reshape_33[0][0]                 
__________________________________________________________________________________________________
separable_conv2d_2 (SeparableCo (None, 32, 32, 128)  17664       separable_conv2d_1[0][0]         
__________________________________________________________________________________________________
separable_conv2d_3 (SeparableCo (None, 16, 16, 128)  17664       separable_conv2d_2[0][0]         
__________________________________________________________________________________________________
separable_conv2d_4 (SeparableCo (None, 8, 8, 128)    17664       separable_conv2d_3[0][0]         
__________________________________________________________________________________________________
global_average_pooling2d_33 (Gl (None, 128)          0           separable_conv2d_4[0][0]         
__________________________________________________________________________________________________
dense_65 (Dense)                (None, 32)           4128        global_average_pooling2d_33[0][0]
__________________________________________________________________________________________________
dense_66 (Dense)                (None, 1)            33          dense_65[0][0]                   
==================================================================================================
Total params: 218,841
Trainable params: 218,841
Non-trainable params: 0
__________________________________________________________________________________________________
